p1_navigation/checkpoint.pth (torch_old, 28417 bytes, 6 tensors)

fc1.weight f4 [64, 37]
00000000: 328a 86be 19c4 18bc d0a3 34be b88a 71be
00000010: 553d d939 1326 b6be 7ac2 c5be 2dfd f33e
00000020: 8514 4dbf 75bd 15bf 1b56 68be 12aa 22bf
00000030: f251 1d3e 0a8d d9be 1b22 46bf 75b7 9fbe
00000040: 229f b03d f9a5 57be a875 1e3d ae5f afbe
00000050: b56b 6cbe 49a9 f3be 104d dabe 3898 1cbe
00000060: 60fc bebf fc06 c6be 969f b73d ba8e dd3d
00000070: 4464 8abe a0c6 38bf f380 b6bd 9dc6 63be
00000080: 411b 2d3d e504 e7be 56d1 17bf ab41 cfbe
00000090: 191c 093c 591a 0d3e ab02 9a3d 1a99 b23d
000000a0: d5ca 943c cc58 433d 1566 89bd ffc2 8b3d
000000b0: 4b56 fc3c 3586 0c3e e2cc 613e 4eb5 8a3d
000000c0: 5679 82bc 8e8a 553d 2a14 c43d c673 df3d
000000d0: 2394 1e3e e9b0 1e3e ccf7 d43d bb7f 953d
000000e0: bac9 153d 4feb 66bd 6720 45bd 59db 8cbd
000000f0: 79dd 153d 295f 853d dd60 023f fd0c 3bbf
00000100: 59ff 02bf 3943 6fbf 3a5e 3bc0 99b6 07bd
00000110: 3cff 013d e5f1 ad3d 0e0b 603e d33b 323e
00000120: 9fb2 8e3c b60b 2bbc 47c5 e9bc 8a99 233e
00000130: 78df d0bc 8522 073d 80e8 a6bd ee63 e5bd
00000140: c127 acbc b750 0dbc 20c5 1f3e 9af0 923d
00000150: f31e 9a3e bd36 9f3d 1ba3 b43d b6f0 0abe
00000160: 9cec 8abe 3b1e dc3d 0890 e93d 6c91 823e
00000170: e9c1 6f3d 69ab ca3a ef20 573e 3316 1f3d
00000180: d69e a4bd 1c57 28be f36c c7be 50e5 843d
00000190: f77a bb3d d5a8 1f3d 7fff a4bc 4114 5ebe
000001a0: 98b6 dd3c 018f c0bd aad7 463d 759d 833d
000001b0: 0149 3abc a1f1 2c3e 1266 183d e0e1 353e
000001c0: a660 d7bc 76ca 2a3e c4df 6d3e 4a05 fb3d
000001d0: b2d2 493e 16b4 313e fd8c bf3d 373e 513e
000001e0: 1cf8 6e3d f70b ae3d 63cf f63d 7733 113d
000001f0: c053 953e ce4a 3a3e 0894 2c3d daf4 013e
00000200: 5bc4 b13c d4d6 a7bc 5df1 b0bd eec0 8f3e
00000210: 74f0 6f3e 351e d43d 05da d0bd 9d46 07bf
00000220: 7387 f03c b77a 0fbd 7f31 653d 0815 983e
00000230: 2072 f63e c1e7 ff3d de44 313e dc5f e23d
00000240: 00b8 4e3e 113d e13d 742d 85bd 4223 e43c
00000250: 01d6 71bf f08b 2fbd d040 6c3e a9b9 d1be
00000260: 7bf0 28be 8db3 55bf 9d20 7b3e 8738 21bf
00000270: 3470 0bbe e552 a6be be9e c8be 2c34 67bf
00000280: d602 ed3e e781 eebe ddc2 f5be 4919 533e
00000290: 5c56 0dbf e617 1bbe 34bc e4be 0ad1 37bf
000002a0: 794d c4be 5a23 f23c 62fd bcbe a45f cdbe
000002b0: c08d 8bbe 9712 bcbe 68a0 2f3e 0029 2ebf
000002c0: 1d5a a9be a835 b4be 0286 c1be cc63 bb3e
000002d0: d147 03bf 60ef cabe 808a 6fbd e33e df3c
000002e0: 0dda 1a3c 6f84 1fbe 2014 8bbc 9adf 24bf
000002f0: 92bf 0fbf 1747 2ebe 73d2 843e efeb 13bf
00000300: 95ce 7dbe 8205 453e cd91 9e3e 9cd2 09bf
00000310: 57f0 0cbd b645 cf3d f818 b03e f6ca 83be
00000320: 0685 023e b5a0 babe 8681 d9be a702 efbe
00000330: f219 13bf 70bd b53d 7800 d8be 249b 01bf
00000340: 8da0 553d 4bed 8f3e 5a5e 6bbe 3d3e 03bf
00000350: 944a a13d c038 a9be 5bf7 143b 4ce5 0abb
00000360: 90a7 1dbf 3b85 8dbb b6bd 82be 0f91 19bc
00000370: b292 243e 8077 9bbd 630f 34be 255c 3fbe
00000380: a1f4 8c3c 25f6 1bbd a5fb d83e b8ee 7fbe
00000390: 474d 95be 286f ac3d 5fc5 653d 86ad b33d
000003a0: a078 dfbd faa9 c3be 718a 5cbd 965f a4be
000003b0: 278c 243e ba2a 25be 37dc 8bbe d2c9 ddbd
000003c0: 3253 4dbd 4350 403e 5074 0abe 6f7e 31be
000003d0: 8611 503d 8acc 7abe 7a4b 523c 3790 a7be
000003e0: ecea d6be 9630 a33c a85f 673e 65c0 6f3f
000003f0: d5c6 5fbe d7df ec3c bdc4 18be 887e e3bd
-0.2627731 -0.009324097 -0.17640615 -0.23588073 0.0004143516 -0.35575923 -0.38624936 0.47654095
-0.80109435 -0.58492213 -0.22689097 -0.63540757 0.15363291 -0.42490417 -0.7739579 -0.31194654
0.08624102 -0.21059407 0.038686424 -0.34252685 -0.23087962 -0.47590092 -0.4263692 -0.15292442
-1.4920769 -0.38677204 0.089659855 0.108182386 -0.27029622 -0.7217808 -0.08911314 -0.22243734
0.04226232 -0.45120922 -0.59303796 -0.40479788 0.008368515 0.13779582 0.0752004 0.08720608
0.018163124 0.047692105 -0.06708924 0.06824302 0.030802866 0.13723071 0.22050813 0.067728624
-0.015926998 0.05213409 0.095741585 0.10910754 0.15486197 0.15497173 0.10398826 0.07299753
0.036569335 -0.05637675 -0.048126604 -0.06877775 0.036588166 0.06512291 0.5092905 -0.73066694
-0.5117088 -0.9346195 -2.9276261 -0.033133123 0.03173755 0.08493403 0.21879217 0.17405634
0.017419158 -0.010439804 -0.028536452 0.15976539 -0.025497183 0.032991905 -0.081498146 -0.11200701
-0.02101505 -0.008625201 0.15602541 0.07174797 0.30101737 0.077741124 0.088201724 -0.13568386
-0.27133644 0.107479535 0.11404425 0.25501573 0.058534537 0.0015462461 0.21008657 0.03883953
-0.08038108 -0.1643948 -0.3895031 0.064890504 0.09154313 0.03897937 -0.020141361 -0.21687414
0.027064607 -0.09402276 0.048545517 0.06426517 -0.011369945 0.16889049 0.037206717 0.17761946
-0.026291203 0.16678795 0.23229891 0.12256868 0.1970928 0.17353854 0.09353063 0.2043389
0.058342084 0.08498376 0.120512746 0.03544947 0.2916546 0.18192598 0.04213336 0.1269106
0.021700075 -0.02048818 -0.086397864 0.2807688 0.2343157 0.10357324 -0.10197834 -0.5284212
0.029361462 -0.03502914 0.055955406 0.29703546 0.48133945 0.124953754 0.17311427 0.1105344
0.20187378 0.109979756 -0.0650281 0.027848843 -0.9446717 -0.042858064 0.23071599 -0.4096196
-0.16497986 -0.834771 0.2452416 -0.6297688 -0.13617021 -0.32485119 -0.3918361 -0.9031398
0.46291226 -0.46583483 -0.4800023 0.20615114 -0.552099 -0.15145835 -0.44674838 -0.71803343
-0.38340357 0.029557873 -0.36912066 -0.4011203 -0.27256584 -0.36732933 0.17151034 -0.6803131
-0.33076563 -0.35197186 -0.37797552 0.36599576 -0.5128146 -0.39635754 -0.058481693 0.027251666
0.009451401 -0.15577863 -0.01697737 -0.6440369 -0.5615169 -0.17019306 0.2594181 -0.5778188
-0.24785836 0.19240382 0.30970612 -0.5383699 -0.034408893 0.10120718 0.3439405 -0.25740784
0.12746057 -0.36450735 -0.4248163 -0.4668171 -0.57461464 0.08874023 -0.42187858 -0.5062735
0.052155066 0.28110728 -0.22985211 -0.51266843 0.07875553 -0.3305111 0.0022730443 -0.00211938
-0.61583805 -0.004318861 -0.25535363 -0.009372964 0.16071585 -0.07591152 -0.17583995 -0.18687494
0.017206492 -0.03807654 0.4237949 -0.24993408 -0.2916052 0.08419639 0.05609643 0.08773331
-0.10911679 -0.3821562 -0.053842966 -0.32104176 0.16069089 -0.1612958 -0.27316448 -0.1082951
-0.05012817 0.18780617 -0.13520932 -0.17333387 0.05079796 -0.24492088 0.012835378 -0.32727215
-0.41976106 0.019920629 0.22595084 0.93652946 -0.21853192 0.028915329 -0.149188 -0.11108118

fc1.bias f4 [64]
00000000: 2850 d33d b5c9 1fbd 39f7 f7bd 56c6 253e
00000010: 6d2c f5bc 219d 7fbe 6d9d 15be c337 d83d
00000020: 96bd 95bd 9bf6 203c 6236 4cbe dbc3 0fbe
00000030: fb86 d1bd 4497 59bd 9482 563e 37a9 0d3e
00000040: b6f3 35be 15cc 053d f89e ea39 7bb7 12bd
00000050: 7495 b0bd 62ec 053d 7cfd d2bc 26ed a43b
00000060: 42d6 4bbe 8b3d bd3d c7f2 a5bd d972 cf3d
00000070: 9613 b13d 2c18 c1bd 3e4b 67bc d13f 973e
00000080: f6d0 9a3e 6e1a cdbd 5dbc 8e3b 11f6 34be
00000090: 6354 0ebc 9f8f 19bd b6a2 b7bd 5b95 92bb
000000a0: 29eb 54be 7fea 3a3e cdf1 83bd c812 cd3d
000000b0: a21b 3e3d 8f1f 1e3e c59d 9bbb a469 873c
000000c0: 64e6 6938 9d85 b6be a934 c43d c573 62bd
000000d0: 2f50 b63d 5bee 103e f6c5 273e 7a82 923c
000000e0: 623e b43c e987 853d 95c2 e0bc 8555 aa3d
000000f0: 1e47 48be 739a 5cbe 96f0 55be 3b64 33bc
0.10318023 -0.039010722 -0.12107701 0.1618894 -0.02992841 -0.24962284 -0.14610834 0.10557511
-0.07311551 0.00982442 -0.1994262 -0.14039557 -0.102308236 -0.053122774 0.20948249 0.13834082
-0.1776875 0.03266533 0.000447504 -0.03581951 -0.08622256 0.032696135 -0.025755636 0.005033153
-0.19905952 0.09240254 -0.08102947 0.10129327 0.08646314 -0.094284385 -0.01411706 0.29540876
0.3023755 -0.10014807 0.0043559507 -0.17671992 -0.008687112 -0.037490483 -0.089665815 -0.004473371
-0.20792831 0.18253516 -0.06442604 0.10013348 0.04641307 0.15441726 -0.004749032 0.016529866
5.5766097e-05 -0.35648814 0.09580357 -0.055286188 0.089020126 0.14153425 0.1638411 0.017884482
0.022002403 0.065200634 -0.027436534 0.08317093 -0.19558379 -0.21543293 -0.20892558 -0.01094919

fc2.weight f4 [64, 64]
00000000: 876a 7c3e 0b2c 18be ab77 a93d 2c02 d33c
00000010: 1334 e4bd d649 81be ce91 863c d0bb 8bbe
00000020: b76e c13d 611a b8bb 407e 2a3e 9955 9a3d
00000030: b6df 973d f554 a23d 8d5a 3a3e 5a1e f6be
00000040: 25b8 1f3d e1ac 153d 93ae c0bd c4b6 62be
00000050: b49c 92bd 2ec5 07bf ff61 d4bd 65b6 4dbe
00000060: 0e57 5cbe 1078 103f 5054 a83d f030 cbbd
00000070: 10f5 0cbe 009a 07bf 4c42 1dbd 10dd 51be
00000080: b74f 0fbe 11ac 16be e1a6 43be c1e5 25be
00000090: 5be4 7ebe 33df 473d 468e a9bc c9fb c5bd
000000a0: 51e2 183d 8010 febc d590 1dbf fcd9 763d
000000b0: 1cbb 82bd 4006 ed3e 487c 20bf 2b78 923e
000000c0: 016b 843e f60d 2fbd 0247 6dbc de09 a93e
000000d0: 566f 90bd 2cf9 6abd beea dbbd 4523 82bd
000000e0: 6e4d dc3b 3386 a0bd 2e9b 843e d155 98be
000000f0: 1e1a b1bc de47 6e3d 069d 57bc 4c22 98bd
00000100: d1c7 01be 4df5 9ebe 1217 3abe 8383 1abe
00000110: 6706 eabd 1d98 83be 14e0 c0be d87e 853d
00000120: 0f5f 063e f99a 843e d9f8 b6be 6238 0ebe
00000130: 41e3 3fbe b60f f2be bb98 953c 5af0 183d
00000140: 7b29 96bd 521a f6be 6796 53be e13c 80be
00000150: 9cba 63bd 5afa 313e 470b e8be b0d6 c5bd
00000160: c5e0 e9be 322c 9fbd a122 163d 96fa 003c
00000170: 95cd f6be 251b 303e f508 56be fa4c 8ebe
00000180: e3de 53bd 0f3d 95be b07a 803e 7581 453e
00000190: 60e5 37bf 9f80 2cbe f48c cfbe 14da e8be
000001a0: 7a4d 89be 87c2 f6be 813b 173c 1ddc 42bf
000001b0: b95e 61be a446 0e3f 7eb4 fabe 3bbb d8be
000001c0: 7b96 8cbe 1ef4 66be bd97 8dbe 1e4d 1d3e
000001d0: fef4 97be 5404 9a3e 5cb8 9a3e 3fac 9b3d
000001e0: 2fc0 1a3e 73d6 e8bd a891 30bf 8b07 143e
000001f0: a8b0 febe ab35 77be 16a4 2ebe ee45 aa3d
00000200: f765 83be bf34 e7bd 3e82 e63d c111 81be
00000210: f972 debd 50d5 0ebf 2209 17bf 7c25 3d3e
00000220: eb9a a13e b5a3 893e f02d 97bf 3694 dbbe
00000230: 342c c53b 6133 39bf 99c7 8fbe 50ac 58be
00000240: 65b6 28bf 4f5d 533e c005 babe 91cd 4bbd
00000250: 64d5 3c3d 0a56 cabd 549e 27bf f040 82be
00000260: 029f 96be 8f0a f7be 1517 6fbd 3794 7ebf
00000270: e3a9 183e 9fdd ac3d 9cde cb3e 8845 21bf
00000280: d944 ba3e 2d59 acbe 3c5b 753e 68d9 b43e
00000290: 9b74 31be f2a7 85be 0dc4 653e 0e03 6dbf
000002a0: 9154 8abe 6df6 3dbe f080 663d 49dc 98bf
000002b0: a41f 35be 8aab fd3e 69d7 80be 6265 4ebd
000002c0: 8781 67bf f869 dfbd 7a97 b7bd ca4a 1dbe
000002d0: 88e4 fa3d aa4e 813d de1e f43e 2579 afbe
000002e0: 8c1d a8be 34d2 11bf f49b 55be 23e1 1b3d
000002f0: 36f7 5fbf 1ff2 d2bd f0f5 6fbf 8b47 383d
00000300: 583d 023d c02d abbb 8a45 553d 6aee 27bd
00000310: 74f6 783d ec1f 5dbd 18e8 123d 56f4 a53d
00000320: 5c25 2b3d 3a29 fcbd 1d94 5bbd 4685 bbbd
00000330: 54fa dabc d01c fbbc ca51 33bd 0dd0 01bd
00000340: ca64 9cbd cc8b 903d c307 773a 42ad c6bd
00000350: 2c15 283d 0048 b73b 94f7 d8bd 4efc f7bd
00000360: 08ce 823d 44e2 68bd 001e c1bd 5fb8 d1bd
00000370: 1880 edbc df50 02bd 542e 52bd 0dd5 ce3c
00000380: 8727 babd 6191 01be d23a 12ba 3c31 66bd
00000390: 1a69 4d3c 574b ab3d b380 1e3d 64ee 1b3c
000003a0: 30a3 e53c 1f11 82bd 785e 7abd e7ba 813b
000003b0: afa9 3cbd a4d6 e6bd 94aa cebd 9385 ac3c
000003c0: 7c66 c1bc a80f e43c f139 833d 501f 99bd
000003d0: ae86 f3bd ca24 64bd 82be b8bd d2c2 13be
000003e0: 5699 c73c 9631 b1bd a0d5 46bc aa51 0cbe
000003f0: 0709 ed3a e4a2 593d 3c55 44bc 243f 9fbd
0.24650012 -0.14860551 0.08274778 0.025757872 -0.11142745 -0.25251645 0.016426947 -0.27291727
0.09444945 -0.005618379 0.16649723 0.07535858 0.07415716 0.079263605 0.18198605 -0.4807003
0.038993973 0.036541823 -0.094082974 -0.22140032 -0.07158795 -0.5303525 -0.10370254 -0.20089109
-0.21517584 0.564332 0.08219206 -0.099214435 -0.13765359 -0.5296936 -0.038393304 -0.20494485
-0.13995253 -0.14714076 -0.19106628 -0.16200925 -0.24891798 0.048796844 -0.020697724 -0.09667165
0.037325207 -0.031013727 -0.6154912 0.06026648 -0.063833445 0.4629383 -0.6268964 0.28607306
0.25862888 -0.042737924 -0.014482262 0.3301534 -0.07052486 -0.057366535 -0.10738133 -0.063543834
0.0067230975 -0.078380965 0.25899643 -0.29752973 -0.021618899 0.058174007 -0.013159996 -0.074284166
-0.1267388 -0.31046525 -0.18172863 -0.1508923 -0.114270024 -0.2570199 -0.37670958 0.06518334
0.131222 0.25899485 -0.3573673 -0.13888696 -0.18739034 -0.47277611 0.018261304 0.037338592
-0.073321305 -0.48066956 -0.20662843 -0.25046447 -0.055597886 0.17380658 -0.45321104 -0.09660089
-0.45679298 -0.077721015 0.03665412 0.007872244 -0.48203722 0.17197855 -0.20901854 -0.27793103
-0.051726233 -0.29148147 0.25093603 0.19287665 -0.71834373 -0.1684594 -0.40537226 -0.4547888
-0.26816922 -0.48195288 0.009230495 -0.76117116 -0.2200879 0.5557654 -0.4896583 -0.42330346
-0.27458557 -0.22554061 -0.2765483 0.15361449 -0.29679102 0.30081427 0.3021878 0.07601213
0.15112375 -0.11369028 -0.68972254 0.14456002 -0.49744153 -0.24141566 -0.17054781 0.08314119
-0.2566373 -0.112893574 0.112553105 -0.25208858 -0.10861773 -0.5579424 -0.5899831 0.1847133
0.31563506 0.2688271 -1.1810894 -0.42886513 0.0060172323 -0.72344023 -0.28081968 -0.21159482
-0.6590331 0.20641063 -0.36332512 -0.04975659 0.046101943 -0.09879692 -0.65475965 -0.25440168
-0.29418188 -0.48250243 -0.058371622 -0.9944491 0.14908557 0.08440708 0.39818275 -0.6299672
0.36380652 -0.33661786 0.23960584 0.35322118 -0.17329638 -0.26104695 0.22438069 -0.92582786
-0.27017644 -0.18551035 0.056275308 -1.1942226 -0.17687851 0.49544936 -0.25164345 -0.050389655
-0.9043202 -0.10908884 -0.08964439 -0.15360561 0.1225062 0.06313832 0.476798 -0.34272113
-0.32835042 -0.5696137 -0.20860273 0.038056504 -0.8748659 -0.10300087 -0.93734646 0.044990104
0.031796783 -0.0052239597 0.05206827 -0.040998854 0.06078191 -0.05398552 0.035865873 0.08103244
0.041783676 -0.12312551 -0.05360805 -0.09156279 -0.026730694 -0.030653387 -0.043779172 -0.031692553
-0.076364115 0.07057914 0.0009423459 -0.09701015 0.041035816 0.0055933 -0.10594097 -0.1210867
0.063869536 -0.05685641 -0.0942955 -0.10240244 -0.028991744 -0.031815406 -0.051313713 0.025248075
-0.090895705 -0.12653114 -0.0005578223 -0.056199297 0.012537265 0.08363979 0.038696956 0.009517286
0.028031915 -0.06350922 -0.06112525 0.003959048 -0.04606026 -0.11271408 -0.10091129 0.021059787
-0.023608439 0.027839497 0.06407536 -0.074766755 -0.118909225 -0.055699147 -0.090207115 -0.14429787
0.024365108 -0.08652036 -0.012135893 -0.13703027 0.0018084355 0.05313386 -0.011983212 -0.07775715

fc2.bias f4 [64]
00000000: 0295 533d 7601 26bd 5605 073b a74c c8bd
00000010: ae92 52bd 6b9e ae3e 6868 50bd d931 933d
00000020: fb3e 0abc ef47 383e 9be0 2f3e d16f 33be
00000030: a972 a4be edb0 433e 27d4 bf3e 48b4 f13d
00000040: 5b66 8cbe f66d f13d 42f2 213c 7bf6 d73d
00000050: 6e86 d33e b38f 6b3e a4c9 193f 13c7 3fbe
00000060: bbd8 8a3e b633 bf3d 6ebb 48be 33e6 b2bb
00000070: dc1a e73e ccbd a6bc 8b52 00be bc3e 673f
00000080: ceab 4a3d d998 833d 1de3 573c 03d5 883e
00000090: f3ef 01be 4276 f13d 6c7a 6e3f 4dfd 183f
000000a0: 899c 8bbe 0b65 233f d6e3 643f 22ec 58be
000000b0: 1e0b d73e 2783 d13e 3c00 823d 85db d1bc
000000c0: ee3f 35be bfca 6a3e 23ef 86be 3ae4 5f3f
000000d0: 6464 8abe b8c2 e1bd 9c3d 0b3f f59b 00be
000000e0: d52f 3e3e d2ba ffbd 4bb9 44be 7128 7b3e
000000f0: 6c1a 6bbe dd0b 45be e2c4 85be 1926 ad3e
0.051655777 -0.040528737 0.0020602546 -0.09780245 -0.051409416 0.34105238 -0.05088082 0.07187242
-0.008437867 0.1799619 0.17175524 -0.17523123 -0.3211873 0.1911046 0.37466547 0.11801964
-0.2742184 0.117885515 0.009884419 0.10545059 0.413135 0.23004036 0.60073304 -0.18728285
0.27118477 0.09336035 -0.19602749 -0.005459571 0.4513768 -0.020354174 -0.12531488 0.903301
0.049480252 0.06425638 0.013176707 0.26725015 -0.1268919 0.11790134 0.9315555 0.59761506
-0.27267864 0.63826054 0.8941015 -0.21183828 0.4200067 0.40920374 0.06347701 -0.02561737
-0.17700168 0.22928904 -0.26354322 0.8745762 -0.27029717 -0.11023468 0.54390883 -0.12559493
0.18572934 -0.12486805 -0.19211309 0.24527146 -0.22959298 -0.19242807 -0.26126772 0.3381813

fc3.weight f4 [4, 64]
00000000: 304b 993e db9b 46bf ed05 8ebf 50a2 b9bd
00000010: c230 c03b 3f62 0c3e c219 223f 9163 953e
00000020: 2576 24bf b050 023e 8c89 823e 3684 f03d
00000030: e4e3 babe ba5a 733e a57e 103e 9a6b 8f3e
00000040: 7f02 21be 37ec 123e 6df0 5e3e 65d5 5d3d
00000050: a56a b63d fff0 223e c4fc 463e 03f5 1bbe
00000060: 1ebb 733e 2c9e 5fbe 6358 afbd 6616 a03e
00000070: e70b 703e f885 13be c8ff 64be 9733 933e
00000080: 4bd5 ca3e 3912 993e f4e8 cbbc e69e 2c3e
00000090: 07bf 33be b253 853e 1253 a23e 79b1 233e
000000a0: 9afe 26bd 59d8 633e da96 a13e f3fc 31bf
000000b0: 7bb3 5f3e a9ff 8e3e 6f18 963d c556 78be
000000c0: c692 2cbe 1250 453e 2cc8 9bbd 872f 7b3e
000000d0: 9f61 71be 00f6 67be 778e 733e 9f32 103d
000000e0: c5ab 393e 0f94 093e 03fc 89be b0b5 d33e
000000f0: 005e 67be fa11 0ebe 6709 4cbe 4b91 b53d
00000100: e3ca 0f3f 77b6 6abd b144 f7bd c08c fabb
00000110: 1c5a 913d e59a 153e bfa8 203f 31aa bc3e
00000120: fcd3 f5be 66b3 44bc a4aa 233e 4c9b 0c3e
00000130: 4403 abbe 7892 a33e 1370 723e dd06 413e
00000140: d2d6 c5bd 5465 423e 67e3 80bd b4d0 d73b
00000150: 0453 de3d 6c86 063e 8495 913e 0ece 643c
00000160: 2fc0 613e a4fb b83d 7a96 c13d 20a0 273f
00000170: d23b 2f3e e67d 0bbd 5517 dcbb 9925 9f3e
00000180: cab9 c63e 0a6b a33e a546 793d 4d80 0d3e
00000190: 0bfc ab3d 6035 843e 4dd6 883e d181 833d
000001a0: 44a6 92bd 9882 263e 6be7 933e d343 f0bd
000001b0: af4f 683e 6043 443e 9d70 f53d ae7c 023d
000001c0: 8182 1f3e 3526 453e dbec 68be 0f85 a23e
000001d0: fe49 9cbd b520 e13c 2102 533e 783c ad3c
000001e0: 5b57 6f3e f542 8b3e 9e00 293d 3a18 553e
000001f0: 76dc a3be 3fe1 c33d 8ad9 63bc 34bd 4e3e
00000200: b889 633e eca2 bc3d 32a9 c4be 8575 73bd
00000210: 35f6 4c3e 2094 3c3e bc10 353f 0e29 853e
00000220: 19b0 9fbe d9a6 343e a62e 653d aafe e53e
00000230: 8ab1 d5bd eb3b 04bd a7be 643e e5da 873e
00000240: 4e5b cfbe 7143 b33d a2ea 863e b2b4 a03e
00000250: cc3e 943c 7c47 20be 4647 c73e c67a 8fbd
00000260: 1bc5 433d dfc9 623e 00e5 01bd 471b 4c3d
00000270: c9b5 e83d fadd 283e 6997 1abd 6c2e 9a3e
00000280: 4cd0 ea3e bcde 493e 9ea9 343d 39c4 5e3e
00000290: f4d2 64be 821c 013d b1ec a03e 0251 1c3e
000002a0: 2f54 1d3e b211 6f3e 614d 873e c573 d0bd
000002b0: b316 993e 6d0a 473e e415 5e3e 7f8f cebe
000002c0: 42de b43e 89c1 e9bd 6ee0 b3bc 89e5 623e
000002d0: df16 05bf e1c4 ac3d fbf1 a53e 5137 99bd
000002e0: e1b5 843e 5641 fabc 9d04 513e d72f b13e
000002f0: d9dd 77be a08f 8a3d a4a1 623e 6f44 7b3b
00000300: 047a 893e 0044 e53e 3e5f 98be de07 a1bd
00000310: 6c4d 683e 26d1 a03e 5d18 213d bd11 fbbc
00000320: 49ed 1bbf 7bd3 823e 850e 9e3e e382 143d
00000330: 49ce d8bd 4034 0f3e 5f66 903e 3879 603d
00000340: f3dc debe 9216 acbe 5843 013d b3c5 403e
00000350: 48b7 1b3e 94d8 0cbe 153c 663e 0270 10be
00000360: 9d01 363e 23c1 7a3e 493b 91be 989c 5d3f
00000370: 22c8 f43d 29ab 3e3d 2185 babd ef97 8c3e
00000380: 0035 843e 28b8 503e 886b 653e 9ee6 e3bd
00000390: aaeb 05bf c5ee 8b3e bf25 693e 5688 503e
000003a0: d2a8 a03e 9782 883e 046a bd3e 30ed 49be
000003b0: 78dc b43d eacf 733e de4d 8bbe 0d3e 3cbe
000003c0: 4466 c9be 0d7b 91bd 8d5f aabe a9e8 9e3e
000003d0: 6abc 31be df4c 583e 1338 a43e e9d2 863c
000003e0: 1d39 10be f756 9ebe bc19 113e 7648 923e
000003f0: 7691 0a3d c8f5 c83e 9806 453e 6c86 683e
0.29940176 -0.77581567 -1.1095558 -0.09064162 0.0058651874 0.13709353 0.63320553 0.29177526
-0.64242774 0.12726092 0.25495565 0.11743967 -0.36501992 0.23765078 0.14110811 0.2801178
-0.15723608 0.14347921 0.21771403 0.054158587 0.089070596 0.15912245 0.1943236 -0.15230183
0.23801848 -0.21837682 -0.0856178 0.3126709 0.2344204 -0.14406574 -0.22363198 0.28750297
0.39615855 0.29896715 -0.024891354 0.1685749 -0.1755334 0.26040417 0.31704003 0.15985669
-0.04077015 0.22250499 0.31560403 -0.69526595 0.2184581 0.27929428 0.07328879 -0.2425185
-0.16852865 0.19268826 -0.07606539 0.24529849 -0.23572396 -0.22652435 0.23784815 0.035204526
0.18131931 0.13435386 -0.26950082 0.41349554 -0.22594452 -0.13874045 -0.19925462 0.08865603
0.56168956 -0.05730292 -0.12073649 -0.0076461732 0.07097265 0.14609869 0.62757486 0.36848596
-0.48013294 -0.012005663 0.15983063 0.13731116 -0.3340093 0.31947684 0.23675565 0.18850274
-0.09660114 0.18983966 -0.062933736 0.0065861586 0.10855678 0.13137215 0.28434384 0.013965143
0.22045968 0.09032372 0.09452529 0.65478706 0.17112663 -0.034055613 -0.0067166486 0.31083372
0.3881362 0.31917602 0.060858388 0.13818474 0.08397683 0.25821972 0.26726 0.06421245
-0.07160619 0.16260755 0.28887495 -0.117316864 0.22686647 0.19166327 0.1198437 0.031857185
0.15577127 0.19252856 -0.22746603 0.3174214 -0.076313004 0.027481416 0.20606281 0.021146998
0.23373167 0.27199522 0.041260354 0.20810023 -0.32004136 0.09564447 -0.013906846 0.20189363
0.22220504 0.092107624 -0.38410336 -0.059438247 0.20015796 0.1841588 0.7072866 0.26007885
-0.3118904 0.17641772 0.05595269 0.44920856 -0.104342535 -0.032283705 0.22338353 0.2653419
-0.40499347 0.08753098 0.26350886 0.3138786 0.01809635 -0.15652269 0.38921565 -0.07005839
0.047795396 0.2214732 -0.031712532 0.0498307 0.11362798 0.16490927 -0.037742052 0.30113542
0.45862043 0.19713873 0.044107072 0.2175454 -0.22346097 0.031521328 0.3143058 0.15265277
0.15364145 0.23346594 0.26426223 -0.10178331 0.2990013 0.19437571 0.21688038 -0.40343854
0.3532582 -0.11413867 -0.021957602 0.22157873 -0.51988024 0.08435989 0.3241118 -0.07481254
0.25920013 -0.030548733 0.20411916 0.3460681 -0.24205722 0.067656755 0.22131974 0.003834035
0.26850903 0.44778442 -0.29760164 -0.07862829 0.22685784 0.31409568 0.039329875 -0.030648107
-0.60908943 0.25551972 0.30870453 0.036257636 -0.10586221 0.13984776 0.28203103 0.054803103
-0.43527946 -0.3361097 0.031558365 0.18825416 0.15206635 -0.13754493 0.22483857 -0.14105228
0.17774053 0.24487738 -0.28365543 0.8656707 0.11952235 0.04654995 -0.091074236 0.27459666
0.25821686 0.2038275 0.22404301 -0.11127971 -0.5231272 0.27330604 0.22768305 0.20364508
0.313788 0.26662132 0.36994946 -0.19719386 0.088311136 0.23809782 -0.27207845 -0.18383045
-0.39335835 -0.07103548 -0.33276024 0.3103688 -0.1735703 0.21123074 0.3207403 0.016457992
-0.14084287 -0.30925724 0.14169973 0.28570908 0.03383013 0.39250016 0.19240797 0.22707528

fc3.bias f4 [4]
00000000: 9f5e 2d3f 49ce fd3e 2b44 0e3f 58a3 013f
0.67722505 0.49571446 0.55572766 0.5063987
